…
or matplotlib.backends is imported for the first time.

  warnings.warn(_use_error_msg)
((960000, 128, 2), (240000, 10), (240000, 128, 2), (240000, 10))
//------------------------------------------------------------------------------------------------------------------------------------NTM
__________________________________________________________________________________________________
Layer (type)                    Output Shape         Param #     Connected to                     
==================================================================================================
Input (InputLayer)              (None, 128, 2)       0                                            
__________________________________________________________________________________________________
res_stack1_a (Conv1D)           (None, 128, 16)      48          Input[0][0]                      
__________________________________________________________________________________________________
bn_stack1_a (BatchNormalization (None, 128, 16)      64          res_stack1_a[0][0]               
__________________________________________________________________________________________________
res_stack1_blockb_u1 (Conv1D)   (None, 128, 16)      2064        bn_stack1_a[0][0]                
__________________________________________________________________________________________________
bn_stack1_blockb_u1 (BatchNorma (None, 128, 16)      64          res_stack1_blockb_u1[0][0]       
__________________________________________________________________________________________________
activation_1 (Activation)       (None, 128, 16)      0           bn_stack1_blockb_u1[0][0]        
__________________________________________________________________________________________________
res_stack1_blockb_u2 (Conv1D)   (None, 128, 16)      272         activation_1[0][0]               
__________________________________________________________________________________________________
bn_stack1_blockb_u2 (BatchNorma (None, 128, 16)      64          res_stack1_blockb_u2[0][0]       
__________________________________________________________________________________________________
add_1 (Add)                     (None, 128, 16)      0           bn_stack1_blockb_u2[0][0]        
                                                                 bn_stack1_a[0][0]                
__________________________________________________________________________________________________
activation_2 (Activation)       (None, 128, 16)      0           add_1[0][0]                      
__________________________________________________________________________________________________
res_stack1_blockc_u1 (Conv1D)   (None, 128, 16)      2064        activation_2[0][0]               
__________________________________________________________________________________________________
bn_stack1_blockc_u1 (BatchNorma (None, 128, 16)      64          res_stack1_blockc_u1[0][0]       
__________________________________________________________________________________________________
activation_3 (Activation)       (None, 128, 16)      0           bn_stack1_blockc_u1[0][0]        
__________________________________________________________________________________________________
res_stack1_blockc_u2 (Conv1D)   (None, 128, 16)      272         activation_3[0][0]               
__________________________________________________________________________________________________
bn_stack1_blockc_u2 (BatchNorma (None, 128, 16)      64          res_stack1_blockc_u2[0][0]       
__________________________________________________________________________________________________
add_2 (Add)                     (None, 128, 16)      0           bn_stack1_blockc_u2[0][0]        
                                                                 activation_2[0][0]               
__________________________________________________________________________________________________
activation_4 (Activation)       (None, 128, 16)      0           add_2[0][0]                      
__________________________________________________________________________________________________
mp_stack1 (MaxPooling1D)        (None, 128, 16)      0           activation_4[0][0]               
__________________________________________________________________________________________________
res_stack2_a (Conv1D)           (None, 128, 32)      544         mp_stack1[0][0]                  
__________________________________________________________________________________________________
bn_stack2_a (BatchNormalization (None, 128, 32)      128         res_stack2_a[0][0]               
__________________________________________________________________________________________________
res_stack2_blockb_u1 (Conv1D)   (None, 128, 32)      8224        bn_stack2_a[0][0]                
__________________________________________________________________________________________________
bn_stack2_blockb_u1 (BatchNorma (None, 128, 32)      128         res_stack2_blockb_u1[0][0]       
__________________________________________________________________________________________________
activation_5 (Activation)       (None, 128, 32)      0           bn_stack2_blockb_u1[0][0]        
__________________________________________________________________________________________________
res_stack2_blockb_u2 (Conv1D)   (None, 128, 32)      1056        activation_5[0][0]               
__________________________________________________________________________________________________
bn_stack2_blockb_u2 (BatchNorma (None, 128, 32)      128         res_stack2_blockb_u2[0][0]       
__________________________________________________________________________________________________
add_3 (Add)                     (None, 128, 32)      0           bn_stack2_blockb_u2[0][0]        
                                                                 bn_stack2_a[0][0]                
__________________________________________________________________________________________________
activation_6 (Activation)       (None, 128, 32)      0           add_3[0][0]                      
__________________________________________________________________________________________________
res_stack2_blockc_u1 (Conv1D)   (None, 128, 32)      8224        activation_6[0][0]               
__________________________________________________________________________________________________
bn_stack2_blockc_u1 (BatchNorma (None, 128, 32)      128         res_stack2_blockc_u1[0][0]       
__________________________________________________________________________________________________
activation_7 (Activation)       (None, 128, 32)      0           bn_stack2_blockc_u1[0][0]        
__________________________________________________________________________________________________
res_stack2_blockc_u2 (Conv1D)   (None, 128, 32)      1056        activation_7[0][0]               
__________________________________________________________________________________________________
bn_stack2_blockc_u2 (BatchNorma (None, 128, 32)      128         res_stack2_blockc_u2[0][0]       
__________________________________________________________________________________________________
add_4 (Add)                     (None, 128, 32)      0           bn_stack2_blockc_u2[0][0]        
                                                                 activation_6[0][0]               
__________________________________________________________________________________________________
activation_8 (Activation)       (None, 128, 32)      0           add_4[0][0]                      
__________________________________________________________________________________________________
mp_stack2 (MaxPooling1D)        (None, 128, 32)      0           activation_8[0][0]               
__________________________________________________________________________________________________
res_stack3_a (Conv1D)           (None, 128, 48)      1584        mp_stack2[0][0]                  
__________________________________________________________________________________________________
bn_stack3_a (BatchNormalization (None, 128, 48)      192         res_stack3_a[0][0]               
__________________________________________________________________________________________________
res_stack3_blockb_u1 (Conv1D)   (None, 128, 48)      18480       bn_stack3_a[0][0]                
__________________________________________________________________________________________________
bn_stack3_blockb_u1 (BatchNorma (None, 128, 48)      192         res_stack3_blockb_u1[0][0]       
__________________________________________________________________________________________________
activation_9 (Activation)       (None, 128, 48)      0           bn_stack3_blockb_u1[0][0]        
__________________________________________________________________________________________________
res_stack3_blockb_u2 (Conv1D)   (None, 128, 48)      2352        activation_9[0][0]               
__________________________________________________________________________________________________
bn_stack3_blockb_u2 (BatchNorma (None, 128, 48)      192         res_stack3_blockb_u2[0][0]       
__________________________________________________________________________________________________
add_5 (Add)                     (None, 128, 48)      0           bn_stack3_blockb_u2[0][0]        
                                                                 bn_stack3_a[0][0]                
__________________________________________________________________________________________________
activation_10 (Activation)      (None, 128, 48)      0           add_5[0][0]                      
__________________________________________________________________________________________________
res_stack3_blockc_u1 (Conv1D)   (None, 128, 48)      18480       activation_10[0][0]              
__________________________________________________________________________________________________
bn_stack3_blockc_u1 (BatchNorma (None, 128, 48)      192         res_stack3_blockc_u1[0][0]       
__________________________________________________________________________________________________
activation_11 (Activation)      (None, 128, 48)      0           bn_stack3_blockc_u1[0][0]        
__________________________________________________________________________________________________
res_stack3_blockc_u2 (Conv1D)   (None, 128, 48)      2352        activation_11[0][0]              
__________________________________________________________________________________________________
bn_stack3_blockc_u2 (BatchNorma (None, 128, 48)      192         res_stack3_blockc_u2[0][0]       
__________________________________________________________________________________________________
add_6 (Add)                     (None, 128, 48)      0           bn_stack3_blockc_u2[0][0]        
                                                                 activation_10[0][0]              
__________________________________________________________________________________________________
activation_12 (Activation)      (None, 128, 48)      0           add_6[0][0]                      
__________________________________________________________________________________________________
mp_stack3 (MaxPooling1D)        (None, 128, 48)      0           activation_12[0][0]              
__________________________________________________________________________________________________
res_stack4_a (Conv1D)           (None, 128, 64)      3136        mp_stack3[0][0]                  
__________________________________________________________________________________________________
bn_stack4_a (BatchNormalization (None, 128, 64)      256         res_stack4_a[0][0]               
__________________________________________________________________________________________________
res_stack4_blockb_u1 (Conv1D)   (None, 128, 64)      32832       bn_stack4_a[0][0]                
__________________________________________________________________________________________________
bn_stack4_blockb_u1 (BatchNorma (None, 128, 64)      256         res_stack4_blockb_u1[0][0]       
__________________________________________________________________________________________________
activation_13 (Activation)      (None, 128, 64)      0           bn_stack4_blockb_u1[0][0]        
__________________________________________________________________________________________________
res_stack4_blockb_u2 (Conv1D)   (None, 128, 64)      4160        activation_13[0][0]              
__________________________________________________________________________________________________
bn_stack4_blockb_u2 (BatchNorma (None, 128, 64)      256         res_stack4_blockb_u2[0][0]       
__________________________________________________________________________________________________
add_7 (Add)                     (None, 128, 64)      0           bn_stack4_blockb_u2[0][0]        
                                                                 bn_stack4_a[0][0]                
__________________________________________________________________________________________________
activation_14 (Activation)      (None, 128, 64)      0           add_7[0][0]                      
__________________________________________________________________________________________________
res_stack4_blockc_u1 (Conv1D)   (None, 128, 64)      32832       activation_14[0][0]              
__________________________________________________________________________________________________
bn_stack4_blockc_u1 (BatchNorma (None, 128, 64)      256         res_stack4_blockc_u1[0][0]       
__________________________________________________________________________________________________
activation_15 (Activation)      (None, 128, 64)      0           bn_stack4_blockc_u1[0][0]        
__________________________________________________________________________________________________
res_stack4_blockc_u2 (Conv1D)   (None, 128, 64)      4160        activation_15[0][0]              
__________________________________________________________________________________________________
bn_stack4_blockc_u2 (BatchNorma (None, 128, 64)      256         res_stack4_blockc_u2[0][0]       
__________________________________________________________________________________________________
add_8 (Add)                     (None, 128, 64)      0           bn_stack4_blockc_u2[0][0]        
                                                                 activation_14[0][0]              
__________________________________________________________________________________________________
activation_16 (Activation)      (None, 128, 64)      0           add_8[0][0]                      
__________________________________________________________________________________________________
mp_stack4 (MaxPooling1D)        (None, 128, 64)      0           activation_16[0][0]              
__________________________________________________________________________________________________
res_stack5_a (Conv1D)           (None, 128, 80)      5200        mp_stack4[0][0]                  
__________________________________________________________________________________________________
bn_stack5_a (BatchNormalization (None, 128, 80)      320         res_stack5_a[0][0]               
__________________________________________________________________________________________________
res_stack5_blockb_u1 (Conv1D)   (None, 128, 80)      51280       bn_stack5_a[0][0]                
__________________________________________________________________________________________________
bn_stack5_blockb_u1 (BatchNorma (None, 128, 80)      320         res_stack5_blockb_u1[0][0]       
__________________________________________________________________________________________________
activation_17 (Activation)      (None, 128, 80)      0           bn_stack5_blockb_u1[0][0]        
__________________________________________________________________________________________________
res_stack5_blockb_u2 (Conv1D)   (None, 128, 80)      6480        activation_17[0][0]              
__________________________________________________________________________________________________
bn_stack5_blockb_u2 (BatchNorma (None, 128, 80)      320         res_stack5_blockb_u2[0][0]       
__________________________________________________________________________________________________
add_9 (Add)                     (None, 128, 80)      0           bn_stack5_blockb_u2[0][0]        
                                                                 bn_stack5_a[0][0]                
__________________________________________________________________________________________________
activation_18 (Activation)      (None, 128, 80)      0           add_9[0][0]                      
__________________________________________________________________________________________________
res_stack5_blockc_u1 (Conv1D)   (None, 128, 80)      51280       activation_18[0][0]              
__________________________________________________________________________________________________
bn_stack5_blockc_u1 (BatchNorma (None, 128, 80)      320         res_stack5_blockc_u1[0][0]       
__________________________________________________________________________________________________
activation_19 (Activation)      (None, 128, 80)      0           bn_stack5_blockc_u1[0][0]        
__________________________________________________________________________________________________
res_stack5_blockc_u2 (Conv1D)   (None, 128, 80)      6480        activation_19[0][0]              
__________________________________________________________________________________________________
bn_stack5_blockc_u2 (BatchNorma (None, 128, 80)      320         res_stack5_blockc_u2[0][0]       
__________________________________________________________________________________________________
add_10 (Add)                    (None, 128, 80)      0           bn_stack5_blockc_u2[0][0]        
                                                                 activation_18[0][0]              
__________________________________________________________________________________________________
activation_20 (Activation)      (None, 128, 80)      0           add_10[0][0]                     
__________________________________________________________________________________________________
mp_stack5 (MaxPooling1D)        (None, 128, 80)      0           activation_20[0][0]              
__________________________________________________________________________________________________
cu_dnnlstm_1 (CuDNNLSTM)        (None, 50)           26400       mp_stack5[0][0]                  
__________________________________________________________________________________________________
dense1 (Dense)                  (None, 128)          6528        cu_dnnlstm_1[0][0]               
__________________________________________________________________________________________________
dropout_1 (Dropout)             (None, 128)          0           dense1[0][0]                     
__________________________________________________________________________________________________
dense3 (Dense)                  (None, 10)           1290        dropout_1[0][0]                  
__________________________________________________________________________________________________
T (Lambda)                      (None, 10)           0           dense3[0][0]                     
__________________________________________________________________________________________________
activation_21 (Activation)      (None, 10)           0           T[0][0]                          
==================================================================================================
Total params: 303,930
Trainable params: 301,530
Non-trainable params: 2,400
__________________________________________________________________________________________________
2019-12-05 12:00:03.254496: I tensorflow/core/platform/cpu_feature_guard.cc:140] Your CPU supports instructions that this TensorFlow binary was not compiled to use: SSE4.1 SSE4.2 AVX AVX2 FMA
…
2019-12-05 12:00:04.443585: I tensorflow/core/common_runtime/gpu/gpu_device.cc:1053] Created TensorFlow device (/job:localhost/replica:0/task:0/device:GPU:1 with 7233 MB memory) -> physical GPU (device: 1, name: GeForce GTX 1080, pci bus id: 0000:84:00.0, compute capability: 6.1)
('ResNetLSTMLikeModel:', [0.91491014270782467, 0.63785416663487748])
//------------------------------------------------------------------------------------------------------------------------------------NSM trained in the usual way
__________________________________________________________________________________________________
Layer (type)                    Output Shape         Param #     Connected to                     
==================================================================================================
Input (InputLayer)              (None, 128, 2)       0                                            
__________________________________________________________________________________________________
res_stack1_a (Conv1D)           (None, 128, 16)      48          Input[0][0]                      
__________________________________________________________________________________________________
bn_stack1_a (BatchNormalization (None, 128, 16)      64          res_stack1_a[0][0]               
__________________________________________________________________________________________________
res_stack1_blockb_u1 (Conv1D)   (None, 128, 16)      2064        bn_stack1_a[0][0]                
__________________________________________________________________________________________________
bn_stack1_blockb_u1 (BatchNorma (None, 128, 16)      64          res_stack1_blockb_u1[0][0]       
__________________________________________________________________________________________________
activation_22 (Activation)      (None, 128, 16)      0           bn_stack1_blockb_u1[0][0]        
__________________________________________________________________________________________________
res_stack1_blockb_u2 (Conv1D)   (None, 128, 16)      272         activation_22[0][0]              
__________________________________________________________________________________________________
bn_stack1_blockb_u2 (BatchNorma (None, 128, 16)      64          res_stack1_blockb_u2[0][0]       
__________________________________________________________________________________________________
add_11 (Add)                    (None, 128, 16)      0           bn_stack1_blockb_u2[0][0]        
                                                                 bn_stack1_a[0][0]                
__________________________________________________________________________________________________
activation_23 (Activation)      (None, 128, 16)      0           add_11[0][0]                     
__________________________________________________________________________________________________
res_stack1_blockc_u1 (Conv1D)   (None, 128, 16)      2064        activation_23[0][0]              
__________________________________________________________________________________________________
bn_stack1_blockc_u1 (BatchNorma (None, 128, 16)      64          res_stack1_blockc_u1[0][0]       
__________________________________________________________________________________________________
activation_24 (Activation)      (None, 128, 16)      0           bn_stack1_blockc_u1[0][0]        
__________________________________________________________________________________________________
res_stack1_blockc_u2 (Conv1D)   (None, 128, 16)      272         activation_24[0][0]              
__________________________________________________________________________________________________
bn_stack1_blockc_u2 (BatchNorma (None, 128, 16)      64          res_stack1_blockc_u2[0][0]       
__________________________________________________________________________________________________
add_12 (Add)                    (None, 128, 16)      0           bn_stack1_blockc_u2[0][0]        
                                                                 activation_23[0][0]              
__________________________________________________________________________________________________
activation_25 (Activation)      (None, 128, 16)      0           add_12[0][0]                     
__________________________________________________________________________________________________
mp_stack1 (MaxPooling1D)        (None, 128, 16)      0           activation_25[0][0]              
__________________________________________________________________________________________________
res_stack2_a (Conv1D)           (None, 128, 32)      544         mp_stack1[0][0]                  
__________________________________________________________________________________________________
bn_stack2_a (BatchNormalization (None, 128, 32)      128         res_stack2_a[0][0]               
__________________________________________________________________________________________________
res_stack2_blockb_u1 (Conv1D)   (None, 128, 32)      8224        bn_stack2_a[0][0]                
__________________________________________________________________________________________________
bn_stack2_blockb_u1 (BatchNorma (None, 128, 32)      128         res_stack2_blockb_u1[0][0]       
__________________________________________________________________________________________________
activation_26 (Activation)      (None, 128, 32)      0           bn_stack2_blockb_u1[0][0]        
__________________________________________________________________________________________________
res_stack2_blockb_u2 (Conv1D)   (None, 128, 32)      1056        activation_26[0][0]              
__________________________________________________________________________________________________
bn_stack2_blockb_u2 (BatchNorma (None, 128, 32)      128         res_stack2_blockb_u2[0][0]       
__________________________________________________________________________________________________
add_13 (Add)                    (None, 128, 32)      0           bn_stack2_blockb_u2[0][0]        
                                                                 bn_stack2_a[0][0]                
__________________________________________________________________________________________________
activation_27 (Activation)      (None, 128, 32)      0           add_13[0][0]                     
__________________________________________________________________________________________________
res_stack2_blockc_u1 (Conv1D)   (None, 128, 32)      8224        activation_27[0][0]              
__________________________________________________________________________________________________
bn_stack2_blockc_u1 (BatchNorma (None, 128, 32)      128         res_stack2_blockc_u1[0][0]       
__________________________________________________________________________________________________
activation_28 (Activation)      (None, 128, 32)      0           bn_stack2_blockc_u1[0][0]        
__________________________________________________________________________________________________
res_stack2_blockc_u2 (Conv1D)   (None, 128, 32)      1056        activation_28[0][0]              
__________________________________________________________________________________________________
bn_stack2_blockc_u2 (BatchNorma (None, 128, 32)      128         res_stack2_blockc_u2[0][0]       
__________________________________________________________________________________________________
add_14 (Add)                    (None, 128, 32)      0           bn_stack2_blockc_u2[0][0]        
                                                                 activation_27[0][0]              
__________________________________________________________________________________________________
activation_29 (Activation)      (None, 128, 32)      0           add_14[0][0]                     
__________________________________________________________________________________________________
mp_stack2 (MaxPooling1D)        (None, 128, 32)      0           activation_29[0][0]              
__________________________________________________________________________________________________
pooling_size (MaxPooling1D)     (None, 64, 32)       0           mp_stack2[0][0]                  
__________________________________________________________________________________________________
flatten_1 (Flatten)             (None, 2048)         0           pooling_size[0][0]               
__________________________________________________________________________________________________
small_dense3 (Dense)            (None, 128)          262272      flatten_1[0][0]                  
__________________________________________________________________________________________________
small_dense4 (Dense)            (None, 10)           1290        small_dense3[0][0]               
__________________________________________________________________________________________________
T (Lambda)                      (None, 10)           0           small_dense4[0][0]               
__________________________________________________________________________________________________
activation_30 (Activation)      (None, 10)           0           T[0][0]                          
==================================================================================================
Total params: 288,346
Trainable params: 287,866
Non-trainable params: 480
__________________________________________________________________________________________________
Train on 960000 samples, validate on 240000 samples
Epoch 1/150
 - 58s - loss: 1.7550 - acc: 0.3226 - val_loss: 3.1507 - val_acc: 0.2708
…
 - 52s - loss: 0.8757 - acc: 0.6471 - val_loss: 6.0436 - val_acc: 0.2278
('small_ResNetLSTMLikeModel:', [1.0930526223182677, 0.56263750003178914])
start to predict
-------------------------------------------------------------------------------------------------------------------NSM trained in the CML way
__________________________________________________________________________________________________
Layer (type)                    Output Shape         Param #     Connected to                     
==================================================================================================
Input (InputLayer)              (None, 128, 2)       0                                            
__________________________________________________________________________________________________
res_stack1_a (Conv1D)           (None, 128, 16)      48          Input[0][0]                      
__________________________________________________________________________________________________
bn_stack1_a (BatchNormalization (None, 128, 16)      64          res_stack1_a[0][0]               
__________________________________________________________________________________________________
res_stack1_blockb_u1 (Conv1D)   (None, 128, 16)      2064        bn_stack1_a[0][0]                
__________________________________________________________________________________________________
bn_stack1_blockb_u1 (BatchNorma (None, 128, 16)      64          res_stack1_blockb_u1[0][0]       
__________________________________________________________________________________________________
activation_31 (Activation)      (None, 128, 16)      0           bn_stack1_blockb_u1[0][0]        
__________________________________________________________________________________________________
res_stack1_blockb_u2 (Conv1D)   (None, 128, 16)      272         activation_31[0][0]              
__________________________________________________________________________________________________
bn_stack1_blockb_u2 (BatchNorma (None, 128, 16)      64          res_stack1_blockb_u2[0][0]       
__________________________________________________________________________________________________
add_15 (Add)                    (None, 128, 16)      0           bn_stack1_blockb_u2[0][0]        
                                                                 bn_stack1_a[0][0]                
__________________________________________________________________________________________________
activation_32 (Activation)      (None, 128, 16)      0           add_15[0][0]                     
__________________________________________________________________________________________________
res_stack1_blockc_u1 (Conv1D)   (None, 128, 16)      2064        activation_32[0][0]              
__________________________________________________________________________________________________
bn_stack1_blockc_u1 (BatchNorma (None, 128, 16)      64          res_stack1_blockc_u1[0][0]       
__________________________________________________________________________________________________
activation_33 (Activation)      (None, 128, 16)      0           bn_stack1_blockc_u1[0][0]        
__________________________________________________________________________________________________
res_stack1_blockc_u2 (Conv1D)   (None, 128, 16)      272         activation_33[0][0]              
__________________________________________________________________________________________________
bn_stack1_blockc_u2 (BatchNorma (None, 128, 16)      64          res_stack1_blockc_u2[0][0]       
__________________________________________________________________________________________________
add_16 (Add)                    (None, 128, 16)      0           bn_stack1_blockc_u2[0][0]        
                                                                 activation_32[0][0]              
__________________________________________________________________________________________________
activation_34 (Activation)      (None, 128, 16)      0           add_16[0][0]                     
__________________________________________________________________________________________________
mp_stack1 (MaxPooling1D)        (None, 128, 16)      0           activation_34[0][0]              
__________________________________________________________________________________________________
res_stack2_a (Conv1D)           (None, 128, 32)      544         mp_stack1[0][0]                  
__________________________________________________________________________________________________
bn_stack2_a (BatchNormalization (None, 128, 32)      128         res_stack2_a[0][0]               
__________________________________________________________________________________________________
res_stack2_blockb_u1 (Conv1D)   (None, 128, 32)      8224        bn_stack2_a[0][0]                
__________________________________________________________________________________________________
bn_stack2_blockb_u1 (BatchNorma (None, 128, 32)      128         res_stack2_blockb_u1[0][0]       
__________________________________________________________________________________________________
activation_35 (Activation)      (None, 128, 32)      0           bn_stack2_blockb_u1[0][0]        
__________________________________________________________________________________________________
res_stack2_blockb_u2 (Conv1D)   (None, 128, 32)      1056        activation_35[0][0]              
__________________________________________________________________________________________________
bn_stack2_blockb_u2 (BatchNorma (None, 128, 32)      128         res_stack2_blockb_u2[0][0]       
__________________________________________________________________________________________________
add_17 (Add)                    (None, 128, 32)      0           bn_stack2_blockb_u2[0][0]        
                                                                 bn_stack2_a[0][0]                
__________________________________________________________________________________________________
activation_36 (Activation)      (None, 128, 32)      0           add_17[0][0]                     
__________________________________________________________________________________________________
res_stack2_blockc_u1 (Conv1D)   (None, 128, 32)      8224        activation_36[0][0]              
__________________________________________________________________________________________________
bn_stack2_blockc_u1 (BatchNorma (None, 128, 32)      128         res_stack2_blockc_u1[0][0]       
__________________________________________________________________________________________________
activation_37 (Activation)      (None, 128, 32)      0           bn_stack2_blockc_u1[0][0]        
__________________________________________________________________________________________________
res_stack2_blockc_u2 (Conv1D)   (None, 128, 32)      1056        activation_37[0][0]              
__________________________________________________________________________________________________
bn_stack2_blockc_u2 (BatchNorma (None, 128, 32)      128         res_stack2_blockc_u2[0][0]       
__________________________________________________________________________________________________
add_18 (Add)                    (None, 128, 32)      0           bn_stack2_blockc_u2[0][0]        
                                                                 activation_36[0][0]              
__________________________________________________________________________________________________
activation_38 (Activation)      (None, 128, 32)      0           add_18[0][0]                     
__________________________________________________________________________________________________
mp_stack2 (MaxPooling1D)        (None, 128, 32)      0           activation_38[0][0]              
__________________________________________________________________________________________________
res_stack3_a (Conv1D)           (None, 128, 48)      1584        mp_stack2[0][0]                  
__________________________________________________________________________________________________
bn_stack3_a (BatchNormalization (None, 128, 48)      192         res_stack3_a[0][0]               
__________________________________________________________________________________________________
res_stack3_blockb_u1 (Conv1D)   (None, 128, 48)      18480       bn_stack3_a[0][0]                
__________________________________________________________________________________________________
bn_stack3_blockb_u1 (BatchNorma (None, 128, 48)      192         res_stack3_blockb_u1[0][0]       
__________________________________________________________________________________________________
activation_39 (Activation)      (None, 128, 48)      0           bn_stack3_blockb_u1[0][0]        
__________________________________________________________________________________________________
res_stack3_blockb_u2 (Conv1D)   (None, 128, 48)      2352        activation_39[0][0]              
__________________________________________________________________________________________________
bn_stack3_blockb_u2 (BatchNorma (None, 128, 48)      192         res_stack3_blockb_u2[0][0]       
__________________________________________________________________________________________________
add_19 (Add)                    (None, 128, 48)      0           bn_stack3_blockb_u2[0][0]        
                                                                 bn_stack3_a[0][0]                
__________________________________________________________________________________________________
activation_40 (Activation)      (None, 128, 48)      0           add_19[0][0]                     
__________________________________________________________________________________________________
res_stack3_blockc_u1 (Conv1D)   (None, 128, 48)      18480       activation_40[0][0]              
__________________________________________________________________________________________________
bn_stack3_blockc_u1 (BatchNorma (None, 128, 48)      192         res_stack3_blockc_u1[0][0]       
__________________________________________________________________________________________________
activation_41 (Activation)      (None, 128, 48)      0           bn_stack3_blockc_u1[0][0]        
__________________________________________________________________________________________________
res_stack3_blockc_u2 (Conv1D)   (None, 128, 48)      2352        activation_41[0][0]              
__________________________________________________________________________________________________
bn_stack3_blockc_u2 (BatchNorma (None, 128, 48)      192         res_stack3_blockc_u2[0][0]       
__________________________________________________________________________________________________
add_20 (Add)                    (None, 128, 48)      0           bn_stack3_blockc_u2[0][0]        
                                                                 activation_40[0][0]              
__________________________________________________________________________________________________
activation_42 (Activation)      (None, 128, 48)      0           add_20[0][0]                     
__________________________________________________________________________________________________
mp_stack3 (MaxPooling1D)        (None, 128, 48)      0           activation_42[0][0]              
__________________________________________________________________________________________________
res_stack4_a (Conv1D)           (None, 128, 64)      3136        mp_stack3[0][0]                  
__________________________________________________________________________________________________
bn_stack4_a (BatchNormalization (None, 128, 64)      256         res_stack4_a[0][0]               
__________________________________________________________________________________________________
res_stack4_blockb_u1 (Conv1D)   (None, 128, 64)      32832       bn_stack4_a[0][0]                
__________________________________________________________________________________________________
bn_stack4_blockb_u1 (BatchNorma (None, 128, 64)      256         res_stack4_blockb_u1[0][0]       
__________________________________________________________________________________________________
activation_43 (Activation)      (None, 128, 64)      0           bn_stack4_blockb_u1[0][0]        
__________________________________________________________________________________________________
res_stack4_blockb_u2 (Conv1D)   (None, 128, 64)      4160        activation_43[0][0]              
__________________________________________________________________________________________________
bn_stack4_blockb_u2 (BatchNorma (None, 128, 64)      256         res_stack4_blockb_u2[0][0]       
__________________________________________________________________________________________________
add_21 (Add)                    (None, 128, 64)      0           bn_stack4_blockb_u2[0][0]        
                                                                 bn_stack4_a[0][0]                
__________________________________________________________________________________________________
activation_44 (Activation)      (None, 128, 64)      0           add_21[0][0]                     
__________________________________________________________________________________________________
res_stack4_blockc_u1 (Conv1D)   (None, 128, 64)      32832       activation_44[0][0]              
__________________________________________________________________________________________________
bn_stack4_blockc_u1 (BatchNorma (None, 128, 64)      256         res_stack4_blockc_u1[0][0]       
__________________________________________________________________________________________________
activation_45 (Activation)      (None, 128, 64)      0           bn_stack4_blockc_u1[0][0]        
__________________________________________________________________________________________________
res_stack4_blockc_u2 (Conv1D)   (None, 128, 64)      4160        activation_45[0][0]              
__________________________________________________________________________________________________
bn_stack4_blockc_u2 (BatchNorma (None, 128, 64)      256         res_stack4_blockc_u2[0][0]       
__________________________________________________________________________________________________
add_22 (Add)                    (None, 128, 64)      0           bn_stack4_blockc_u2[0][0]        
                                                                 activation_44[0][0]              
__________________________________________________________________________________________________
activation_46 (Activation)      (None, 128, 64)      0           add_22[0][0]                     
__________________________________________________________________________________________________
mp_stack4 (MaxPooling1D)        (None, 128, 64)      0           activation_46[0][0]              
__________________________________________________________________________________________________
res_stack5_a (Conv1D)           (None, 128, 80)      5200        mp_stack4[0][0]                  
__________________________________________________________________________________________________
bn_stack5_a (BatchNormalization (None, 128, 80)      320         res_stack5_a[0][0]               
__________________________________________________________________________________________________
res_stack5_blockb_u1 (Conv1D)   (None, 128, 80)      51280       bn_stack5_a[0][0]                
__________________________________________________________________________________________________
bn_stack5_blockb_u1 (BatchNorma (None, 128, 80)      320         res_stack5_blockb_u1[0][0]       
__________________________________________________________________________________________________
activation_47 (Activation)      (None, 128, 80)      0           bn_stack5_blockb_u1[0][0]        
__________________________________________________________________________________________________
res_stack5_blockb_u2 (Conv1D)   (None, 128, 80)      6480        activation_47[0][0]              
__________________________________________________________________________________________________
bn_stack5_blockb_u2 (BatchNorma (None, 128, 80)      320         res_stack5_blockb_u2[0][0]       
__________________________________________________________________________________________________
add_23 (Add)                    (None, 128, 80)      0           bn_stack5_blockb_u2[0][0]        
                                                                 bn_stack5_a[0][0]                
__________________________________________________________________________________________________
activation_48 (Activation)      (None, 128, 80)      0           add_23[0][0]                     
__________________________________________________________________________________________________
res_stack5_blockc_u1 (Conv1D)   (None, 128, 80)      51280       activation_48[0][0]              
__________________________________________________________________________________________________
bn_stack5_blockc_u1 (BatchNorma (None, 128, 80)      320         res_stack5_blockc_u1[0][0]       
__________________________________________________________________________________________________
activation_49 (Activation)      (None, 128, 80)      0           bn_stack5_blockc_u1[0][0]        
__________________________________________________________________________________________________
res_stack5_blockc_u2 (Conv1D)   (None, 128, 80)      6480        activation_49[0][0]              
__________________________________________________________________________________________________
bn_stack5_blockc_u2 (BatchNorma (None, 128, 80)      320         res_stack5_blockc_u2[0][0]       
__________________________________________________________________________________________________
add_24 (Add)                    (None, 128, 80)      0           bn_stack5_blockc_u2[0][0]        
                                                                 activation_48[0][0]              
__________________________________________________________________________________________________
activation_50 (Activation)      (None, 128, 80)      0           add_24[0][0]                     
__________________________________________________________________________________________________
mp_stack5 (MaxPooling1D)        (None, 128, 80)      0           activation_50[0][0]              
__________________________________________________________________________________________________
cu_dnnlstm_2 (CuDNNLSTM)        (None, 50)           26400       mp_stack5[0][0]                  
__________________________________________________________________________________________________
dense1 (Dense)                  (None, 128)          6528        cu_dnnlstm_2[0][0]               
__________________________________________________________________________________________________
dropout_2 (Dropout)             (None, 128)          0           dense1[0][0]                     
__________________________________________________________________________________________________
dense3 (Dense)                  (None, 10)           1290        dropout_2[0][0]                  
__________________________________________________________________________________________________
T (Lambda)                      (None, 10)           0           dense3[0][0]                     
__________________________________________________________________________________________________
activation_51 (Activation)      (None, 10)           0           T[0][0]                          
==================================================================================================
Total params: 303,930
Trainable params: 301,530
Non-trainable params: 2,400
__________________________________________________________________________________________________
end to predict
__________________________________________________________________________________________________
Layer (type)                    Output Shape         Param #     Connected to                     
==================================================================================================
Input (InputLayer)              (None, 128, 2)       0                                            
__________________________________________________________________________________________________
res_stack1_a (Conv1D)           (None, 128, 16)      48          Input[0][0]                      
__________________________________________________________________________________________________
bn_stack1_a (BatchNormalization (None, 128, 16)      64          res_stack1_a[0][0]               
__________________________________________________________________________________________________
res_stack1_blockb_u1 (Conv1D)   (None, 128, 16)      2064        bn_stack1_a[0][0]                
__________________________________________________________________________________________________
bn_stack1_blockb_u1 (BatchNorma (None, 128, 16)      64          res_stack1_blockb_u1[0][0]       
__________________________________________________________________________________________________
activation_52 (Activation)      (None, 128, 16)      0           bn_stack1_blockb_u1[0][0]        
__________________________________________________________________________________________________
res_stack1_blockb_u2 (Conv1D)   (None, 128, 16)      272         activation_52[0][0]              
__________________________________________________________________________________________________
bn_stack1_blockb_u2 (BatchNorma (None, 128, 16)      64          res_stack1_blockb_u2[0][0]       
__________________________________________________________________________________________________
add_25 (Add)                    (None, 128, 16)      0           bn_stack1_blockb_u2[0][0]        
                                                                 bn_stack1_a[0][0]                
__________________________________________________________________________________________________
activation_53 (Activation)      (None, 128, 16)      0           add_25[0][0]                     
__________________________________________________________________________________________________
res_stack1_blockc_u1 (Conv1D)   (None, 128, 16)      2064        activation_53[0][0]              
__________________________________________________________________________________________________
bn_stack1_blockc_u1 (BatchNorma (None, 128, 16)      64          res_stack1_blockc_u1[0][0]       
__________________________________________________________________________________________________
activation_54 (Activation)      (None, 128, 16)      0           bn_stack1_blockc_u1[0][0]        
__________________________________________________________________________________________________
res_stack1_blockc_u2 (Conv1D)   (None, 128, 16)      272         activation_54[0][0]              
__________________________________________________________________________________________________
bn_stack1_blockc_u2 (BatchNorma (None, 128, 16)      64          res_stack1_blockc_u2[0][0]       
__________________________________________________________________________________________________
add_26 (Add)                    (None, 128, 16)      0           bn_stack1_blockc_u2[0][0]        
                                                                 activation_53[0][0]              
__________________________________________________________________________________________________
activation_55 (Activation)      (None, 128, 16)      0           add_26[0][0]                     
__________________________________________________________________________________________________
mp_stack1 (MaxPooling1D)        (None, 128, 16)      0           activation_55[0][0]              
__________________________________________________________________________________________________
res_stack2_a (Conv1D)           (None, 128, 32)      544         mp_stack1[0][0]                  
__________________________________________________________________________________________________
bn_stack2_a (BatchNormalization (None, 128, 32)      128         res_stack2_a[0][0]               
__________________________________________________________________________________________________
res_stack2_blockb_u1 (Conv1D)   (None, 128, 32)      8224        bn_stack2_a[0][0]                
__________________________________________________________________________________________________
bn_stack2_blockb_u1 (BatchNorma (None, 128, 32)      128         res_stack2_blockb_u1[0][0]       
__________________________________________________________________________________________________
activation_56 (Activation)      (None, 128, 32)      0           bn_stack2_blockb_u1[0][0]        
__________________________________________________________________________________________________
res_stack2_blockb_u2 (Conv1D)   (None, 128, 32)      1056        activation_56[0][0]              
__________________________________________________________________________________________________
bn_stack2_blockb_u2 (BatchNorma (None, 128, 32)      128         res_stack2_blockb_u2[0][0]       
__________________________________________________________________________________________________
add_27 (Add)                    (None, 128, 32)      0           bn_stack2_blockb_u2[0][0]        
                                                                 bn_stack2_a[0][0]                
__________________________________________________________________________________________________
activation_57 (Activation)      (None, 128, 32)      0           add_27[0][0]                     
__________________________________________________________________________________________________
res_stack2_blockc_u1 (Conv1D)   (None, 128, 32)      8224        activation_57[0][0]              
__________________________________________________________________________________________________
bn_stack2_blockc_u1 (BatchNorma (None, 128, 32)      128         res_stack2_blockc_u1[0][0]       
__________________________________________________________________________________________________
activation_58 (Activation)      (None, 128, 32)      0           bn_stack2_blockc_u1[0][0]        
__________________________________________________________________________________________________
res_stack2_blockc_u2 (Conv1D)   (None, 128, 32)      1056        activation_58[0][0]              
__________________________________________________________________________________________________
bn_stack2_blockc_u2 (BatchNorma (None, 128, 32)      128         res_stack2_blockc_u2[0][0]       
__________________________________________________________________________________________________
add_28 (Add)                    (None, 128, 32)      0           bn_stack2_blockc_u2[0][0]        
                                                                 activation_57[0][0]              
__________________________________________________________________________________________________
activation_59 (Activation)      (None, 128, 32)      0           add_28[0][0]                     
__________________________________________________________________________________________________
mp_stack2 (MaxPooling1D)        (None, 128, 32)      0           activation_59[0][0]              
__________________________________________________________________________________________________
pooling_size (MaxPooling1D)     (None, 64, 32)       0           mp_stack2[0][0]                  
__________________________________________________________________________________________________
flatten_2 (Flatten)             (None, 2048)         0           pooling_size[0][0]               
__________________________________________________________________________________________________
small_dense3 (Dense)            (None, 128)          262272      flatten_2[0][0]                  
__________________________________________________________________________________________________
small_dense4 (Dense)            (None, 10)           1290        small_dense3[0][0]               
__________________________________________________________________________________________________
T (Lambda)                      (None, 10)           0           small_dense4[0][0]               
__________________________________________________________________________________________________
activation_60 (Activation)      (None, 10)           0           T[0][0]                          
==================================================================================================
Total params: 288,346
Trainable params: 287,866
Non-trainable params: 480
__________________________________________________________________________________________________
Train on 960000 samples, validate on 240000 samples
Epoch 1/150
 - 56s - loss: 1.9234 - acc: 0.6886 - val_loss: 1.4460 - val_acc: 0.5975
…
