…
been chosen; matplotlib.use() must be called *before* pylab, matplotlib.pyplot,
or matplotlib.backends is imported for the first time.

--------------------------------------------------------------------------------------------------------------------TM
  warnings.warn(_use_error_msg)
(198000, 128, 2) (22000, 11) (22000, 128, 2) (22000, 11)
__________________________________________________________________________________________________
Layer (type)                    Output Shape         Param #     Connected to                     
==================================================================================================
Input (InputLayer)              (None, 128, 2)       0                                            
__________________________________________________________________________________________________
res_stack1_a (Conv1D)           (None, 128, 16)      48          Input[0][0]                      
__________________________________________________________________________________________________
bn_stack1_a (BatchNormalization (None, 128, 16)      64          res_stack1_a[0][0]               
__________________________________________________________________________________________________
res_stack1_blockb_u1 (Conv1D)   (None, 128, 16)      2064        bn_stack1_a[0][0]                
__________________________________________________________________________________________________
bn_stack1_blockb_u1 (BatchNorma (None, 128, 16)      64          res_stack1_blockb_u1[0][0]       
__________________________________________________________________________________________________
activation_1 (Activation)       (None, 128, 16)      0           bn_stack1_blockb_u1[0][0]        
__________________________________________________________________________________________________
res_stack1_blockb_u2 (Conv1D)   (None, 128, 16)      272         activation_1[0][0]               
__________________________________________________________________________________________________
bn_stack1_blockb_u2 (BatchNorma (None, 128, 16)      64          res_stack1_blockb_u2[0][0]       
__________________________________________________________________________________________________
add_1 (Add)                     (None, 128, 16)      0           bn_stack1_blockb_u2[0][0]        
                                                                 bn_stack1_a[0][0]                
__________________________________________________________________________________________________
activation_2 (Activation)       (None, 128, 16)      0           add_1[0][0]                      
__________________________________________________________________________________________________
res_stack1_blockc_u1 (Conv1D)   (None, 128, 16)      2064        activation_2[0][0]               
__________________________________________________________________________________________________
bn_stack1_blockc_u1 (BatchNorma (None, 128, 16)      64          res_stack1_blockc_u1[0][0]       
__________________________________________________________________________________________________
activation_3 (Activation)       (None, 128, 16)      0           bn_stack1_blockc_u1[0][0]        
__________________________________________________________________________________________________
res_stack1_blockc_u2 (Conv1D)   (None, 128, 16)      272         activation_3[0][0]               
__________________________________________________________________________________________________
bn_stack1_blockc_u2 (BatchNorma (None, 128, 16)      64          res_stack1_blockc_u2[0][0]       
__________________________________________________________________________________________________
add_2 (Add)                     (None, 128, 16)      0           bn_stack1_blockc_u2[0][0]        
                                                                 activation_2[0][0]               
__________________________________________________________________________________________________
activation_4 (Activation)       (None, 128, 16)      0           add_2[0][0]                      
__________________________________________________________________________________________________
res_stack2_a (Conv1D)           (None, 128, 32)      544         activation_4[0][0]               
__________________________________________________________________________________________________
bn_stack2_a (BatchNormalization (None, 128, 32)      128         res_stack2_a[0][0]               
__________________________________________________________________________________________________
res_stack2_blockb_u1 (Conv1D)   (None, 128, 32)      8224        bn_stack2_a[0][0]                
__________________________________________________________________________________________________
bn_stack2_blockb_u1 (BatchNorma (None, 128, 32)      128         res_stack2_blockb_u1[0][0]       
__________________________________________________________________________________________________
activation_5 (Activation)       (None, 128, 32)      0           bn_stack2_blockb_u1[0][0]        
__________________________________________________________________________________________________
res_stack2_blockb_u2 (Conv1D)   (None, 128, 32)      1056        activation_5[0][0]               
__________________________________________________________________________________________________
bn_stack2_blockb_u2 (BatchNorma (None, 128, 32)      128         res_stack2_blockb_u2[0][0]       
__________________________________________________________________________________________________
add_3 (Add)                     (None, 128, 32)      0           bn_stack2_blockb_u2[0][0]        
                                                                 bn_stack2_a[0][0]                
__________________________________________________________________________________________________
activation_6 (Activation)       (None, 128, 32)      0           add_3[0][0]                      
__________________________________________________________________________________________________
res_stack2_blockc_u1 (Conv1D)   (None, 128, 32)      8224        activation_6[0][0]               
__________________________________________________________________________________________________
bn_stack2_blockc_u1 (BatchNorma (None, 128, 32)      128         res_stack2_blockc_u1[0][0]       
__________________________________________________________________________________________________
activation_7 (Activation)       (None, 128, 32)      0           bn_stack2_blockc_u1[0][0]        
__________________________________________________________________________________________________
res_stack2_blockc_u2 (Conv1D)   (None, 128, 32)      1056        activation_7[0][0]               
__________________________________________________________________________________________________
bn_stack2_blockc_u2 (BatchNorma (None, 128, 32)      128         res_stack2_blockc_u2[0][0]       
__________________________________________________________________________________________________
add_4 (Add)                     (None, 128, 32)      0           bn_stack2_blockc_u2[0][0]        
                                                                 activation_6[0][0]               
__________________________________________________________________________________________________
activation_8 (Activation)       (None, 128, 32)      0           add_4[0][0]                      
__________________________________________________________________________________________________
res_stack3_a (Conv1D)           (None, 128, 48)      1584        activation_8[0][0]               
__________________________________________________________________________________________________
bn_stack3_a (BatchNormalization (None, 128, 48)      192         res_stack3_a[0][0]               
__________________________________________________________________________________________________
res_stack3_blockb_u1 (Conv1D)   (None, 128, 48)      18480       bn_stack3_a[0][0]                
__________________________________________________________________________________________________
bn_stack3_blockb_u1 (BatchNorma (None, 128, 48)      192         res_stack3_blockb_u1[0][0]       
__________________________________________________________________________________________________
activation_9 (Activation)       (None, 128, 48)      0           bn_stack3_blockb_u1[0][0]        
__________________________________________________________________________________________________
res_stack3_blockb_u2 (Conv1D)   (None, 128, 48)      2352        activation_9[0][0]               
__________________________________________________________________________________________________
bn_stack3_blockb_u2 (BatchNorma (None, 128, 48)      192         res_stack3_blockb_u2[0][0]       
__________________________________________________________________________________________________
add_5 (Add)                     (None, 128, 48)      0           bn_stack3_blockb_u2[0][0]        
                                                                 bn_stack3_a[0][0]                
__________________________________________________________________________________________________
activation_10 (Activation)      (None, 128, 48)      0           add_5[0][0]                      
__________________________________________________________________________________________________
res_stack3_blockc_u1 (Conv1D)   (None, 128, 48)      18480       activation_10[0][0]              
__________________________________________________________________________________________________
bn_stack3_blockc_u1 (BatchNorma (None, 128, 48)      192         res_stack3_blockc_u1[0][0]       
__________________________________________________________________________________________________
activation_11 (Activation)      (None, 128, 48)      0           bn_stack3_blockc_u1[0][0]        
__________________________________________________________________________________________________
res_stack3_blockc_u2 (Conv1D)   (None, 128, 48)      2352        activation_11[0][0]              
__________________________________________________________________________________________________
bn_stack3_blockc_u2 (BatchNorma (None, 128, 48)      192         res_stack3_blockc_u2[0][0]       
__________________________________________________________________________________________________
add_6 (Add)                     (None, 128, 48)      0           bn_stack3_blockc_u2[0][0]        
                                                                 activation_10[0][0]              
__________________________________________________________________________________________________
activation_12 (Activation)      (None, 128, 48)      0           add_6[0][0]                      
__________________________________________________________________________________________________
lstm1 (LSTM)                    (None, 100)          59600       activation_12[0][0]              
__________________________________________________________________________________________________
dense4 (Dense)                  (None, 11)           1111        lstm1[0][0]                      
__________________________________________________________________________________________________
activation_13 (Activation)      (None, 11)           0           dense4[0][0]                     
==================================================================================================
Total params: 129,703
Trainable params: 128,743
Non-trainable params: 960
__________________________________________________________________________________________________
Train on 198000 samples, validate on 22000 samples
Epoch 1/300
 - 268s - loss: 1.3606 - acc: 0.6944 - val_loss: 1.9696 - val_acc: 0.3794
…
('TM:', [1.0604238134526401, 0.6298181818181818])
Process finished with exit code 0
---------------------------------------------------------------------------------------------------------------SM trained in the CML way
(198000, 128, 2) (22000, 11) (22000, 128, 2) (22000, 11)
__________________________________________________________________________________________________
Layer (type)                    Output Shape         Param #     Connected to                     
==================================================================================================
Input (InputLayer)              (None, 128, 2)       0                                            
__________________________________________________________________________________________________
res_stack1_a (Conv1D)           (None, 128, 16)      48          Input[0][0]                      
__________________________________________________________________________________________________
bn_stack1_a (BatchNormalization (None, 128, 16)      64          res_stack1_a[0][0]               
__________________________________________________________________________________________________
res_stack1_blockb_u1 (Conv1D)   (None, 128, 16)      2064        bn_stack1_a[0][0]                
__________________________________________________________________________________________________
bn_stack1_blockb_u1 (BatchNorma (None, 128, 16)      64          res_stack1_blockb_u1[0][0]       
__________________________________________________________________________________________________
activation_1 (Activation)       (None, 128, 16)      0           bn_stack1_blockb_u1[0][0]        
__________________________________________________________________________________________________
res_stack1_blockb_u2 (Conv1D)   (None, 128, 16)      272         activation_1[0][0]               
__________________________________________________________________________________________________
bn_stack1_blockb_u2 (BatchNorma (None, 128, 16)      64          res_stack1_blockb_u2[0][0]       
__________________________________________________________________________________________________
add_1 (Add)                     (None, 128, 16)      0           bn_stack1_blockb_u2[0][0]        
                                                                 bn_stack1_a[0][0]                
__________________________________________________________________________________________________
activation_2 (Activation)       (None, 128, 16)      0           add_1[0][0]                      
__________________________________________________________________________________________________
res_stack1_blockc_u1 (Conv1D)   (None, 128, 16)      2064        activation_2[0][0]               
__________________________________________________________________________________________________
bn_stack1_blockc_u1 (BatchNorma (None, 128, 16)      64          res_stack1_blockc_u1[0][0]       
__________________________________________________________________________________________________
activation_3 (Activation)       (None, 128, 16)      0           bn_stack1_blockc_u1[0][0]        
__________________________________________________________________________________________________
res_stack1_blockc_u2 (Conv1D)   (None, 128, 16)      272         activation_3[0][0]               
__________________________________________________________________________________________________
bn_stack1_blockc_u2 (BatchNorma (None, 128, 16)      64          res_stack1_blockc_u2[0][0]       
__________________________________________________________________________________________________
add_2 (Add)                     (None, 128, 16)      0           bn_stack1_blockc_u2[0][0]        
                                                                 activation_2[0][0]               
__________________________________________________________________________________________________
activation_4 (Activation)       (None, 128, 16)      0           add_2[0][0]                      
__________________________________________________________________________________________________
res_stack2_a (Conv1D)           (None, 128, 32)      544         activation_4[0][0]               
__________________________________________________________________________________________________
bn_stack2_a (BatchNormalization (None, 128, 32)      128         res_stack2_a[0][0]               
__________________________________________________________________________________________________
res_stack2_blockb_u1 (Conv1D)   (None, 128, 32)      8224        bn_stack2_a[0][0]                
__________________________________________________________________________________________________
bn_stack2_blockb_u1 (BatchNorma (None, 128, 32)      128         res_stack2_blockb_u1[0][0]       
__________________________________________________________________________________________________
activation_5 (Activation)       (None, 128, 32)      0           bn_stack2_blockb_u1[0][0]        
__________________________________________________________________________________________________
res_stack2_blockb_u2 (Conv1D)   (None, 128, 32)      1056        activation_5[0][0]               
__________________________________________________________________________________________________
bn_stack2_blockb_u2 (BatchNorma (None, 128, 32)      128         res_stack2_blockb_u2[0][0]       
__________________________________________________________________________________________________
add_3 (Add)                     (None, 128, 32)      0           bn_stack2_blockb_u2[0][0]        
                                                                 bn_stack2_a[0][0]                
__________________________________________________________________________________________________
activation_6 (Activation)       (None, 128, 32)      0           add_3[0][0]                      
__________________________________________________________________________________________________
res_stack2_blockc_u1 (Conv1D)   (None, 128, 32)      8224        activation_6[0][0]               
__________________________________________________________________________________________________
bn_stack2_blockc_u1 (BatchNorma (None, 128, 32)      128         res_stack2_blockc_u1[0][0]       
__________________________________________________________________________________________________
activation_7 (Activation)       (None, 128, 32)      0           bn_stack2_blockc_u1[0][0]        
__________________________________________________________________________________________________
res_stack2_blockc_u2 (Conv1D)   (None, 128, 32)      1056        activation_7[0][0]               
__________________________________________________________________________________________________
bn_stack2_blockc_u2 (BatchNorma (None, 128, 32)      128         res_stack2_blockc_u2[0][0]       
__________________________________________________________________________________________________
add_4 (Add)                     (None, 128, 32)      0           bn_stack2_blockc_u2[0][0]        
                                                                 activation_6[0][0]               
__________________________________________________________________________________________________
activation_8 (Activation)       (None, 128, 32)      0           add_4[0][0]                      
__________________________________________________________________________________________________
res_stack3_a (Conv1D)           (None, 128, 48)      1584        activation_8[0][0]               
__________________________________________________________________________________________________
bn_stack3_a (BatchNormalization (None, 128, 48)      192         res_stack3_a[0][0]               
__________________________________________________________________________________________________
res_stack3_blockb_u1 (Conv1D)   (None, 128, 48)      18480       bn_stack3_a[0][0]                
__________________________________________________________________________________________________
bn_stack3_blockb_u1 (BatchNorma (None, 128, 48)      192         res_stack3_blockb_u1[0][0]       
__________________________________________________________________________________________________
activation_9 (Activation)       (None, 128, 48)      0           bn_stack3_blockb_u1[0][0]        
__________________________________________________________________________________________________
res_stack3_blockb_u2 (Conv1D)   (None, 128, 48)      2352        activation_9[0][0]               
__________________________________________________________________________________________________
bn_stack3_blockb_u2 (BatchNorma (None, 128, 48)      192         res_stack3_blockb_u2[0][0]       
__________________________________________________________________________________________________
add_5 (Add)                     (None, 128, 48)      0           bn_stack3_blockb_u2[0][0]        
                                                                 bn_stack3_a[0][0]                
__________________________________________________________________________________________________
activation_10 (Activation)      (None, 128, 48)      0           add_5[0][0]                      
__________________________________________________________________________________________________
res_stack3_blockc_u1 (Conv1D)   (None, 128, 48)      18480       activation_10[0][0]              
__________________________________________________________________________________________________
bn_stack3_blockc_u1 (BatchNorma (None, 128, 48)      192         res_stack3_blockc_u1[0][0]       
__________________________________________________________________________________________________
activation_11 (Activation)      (None, 128, 48)      0           bn_stack3_blockc_u1[0][0]        
__________________________________________________________________________________________________
res_stack3_blockc_u2 (Conv1D)   (None, 128, 48)      2352        activation_11[0][0]              
__________________________________________________________________________________________________
bn_stack3_blockc_u2 (BatchNorma (None, 128, 48)      192         res_stack3_blockc_u2[0][0]       
__________________________________________________________________________________________________
add_6 (Add)                     (None, 128, 48)      0           bn_stack3_blockc_u2[0][0]        
                                                                 activation_10[0][0]              
__________________________________________________________________________________________________
activation_12 (Activation)      (None, 128, 48)      0           add_6[0][0]                      
__________________________________________________________________________________________________
lstm1 (LSTM)                    (None, 100)          59600       activation_12[0][0]              
__________________________________________________________________________________________________
dense4 (Dense)                  (None, 11)           1111        lstm1[0][0]                      
__________________________________________________________________________________________________
activation_13 (Activation)      (None, 11)           0           dense4[0][0]                     
==================================================================================================
Total params: 129,703
Trainable params: 128,743
Non-trainable params: 960
__________________________________________________________________________________________________
end to predict
__________________________________________________________________________________________________
Layer (type)                    Output Shape         Param #     Connected to                     
==================================================================================================
Input (InputLayer)              (None, 128, 2)       0                                            
__________________________________________________________________________________________________
res_stack1_a (Conv1D)           (None, 128, 16)      48          Input[0][0]                      
__________________________________________________________________________________________________
bn_stack1_a (BatchNormalization (None, 128, 16)      64          res_stack1_a[0][0]               
__________________________________________________________________________________________________
res_stack1_blockb_u1 (Conv1D)   (None, 128, 16)      2064        bn_stack1_a[0][0]                
__________________________________________________________________________________________________
bn_stack1_blockb_u1 (BatchNorma (None, 128, 16)      64          res_stack1_blockb_u1[0][0]       
__________________________________________________________________________________________________
activation_14 (Activation)      (None, 128, 16)      0           bn_stack1_blockb_u1[0][0]        
__________________________________________________________________________________________________
res_stack1_blockb_u2 (Conv1D)   (None, 128, 16)      272         activation_14[0][0]              
__________________________________________________________________________________________________
bn_stack1_blockb_u2 (BatchNorma (None, 128, 16)      64          res_stack1_blockb_u2[0][0]       
__________________________________________________________________________________________________
add_7 (Add)                     (None, 128, 16)      0           bn_stack1_blockb_u2[0][0]        
                                                                 bn_stack1_a[0][0]                
__________________________________________________________________________________________________
activation_15 (Activation)      (None, 128, 16)      0           add_7[0][0]                      
__________________________________________________________________________________________________
res_stack1_blockc_u1 (Conv1D)   (None, 128, 16)      2064        activation_15[0][0]              
__________________________________________________________________________________________________
bn_stack1_blockc_u1 (BatchNorma (None, 128, 16)      64          res_stack1_blockc_u1[0][0]       
__________________________________________________________________________________________________
activation_16 (Activation)      (None, 128, 16)      0           bn_stack1_blockc_u1[0][0]        
__________________________________________________________________________________________________
res_stack1_blockc_u2 (Conv1D)   (None, 128, 16)      272         activation_16[0][0]              
__________________________________________________________________________________________________
bn_stack1_blockc_u2 (BatchNorma (None, 128, 16)      64          res_stack1_blockc_u2[0][0]       
__________________________________________________________________________________________________
add_8 (Add)                     (None, 128, 16)      0           bn_stack1_blockc_u2[0][0]        
                                                                 activation_15[0][0]              
__________________________________________________________________________________________________
activation_17 (Activation)      (None, 128, 16)      0           add_8[0][0]                      
__________________________________________________________________________________________________
res_stack2_a (Conv1D)           (None, 128, 32)      544         activation_17[0][0]              
__________________________________________________________________________________________________
bn_stack2_a (BatchNormalization (None, 128, 32)      128         res_stack2_a[0][0]               
__________________________________________________________________________________________________
res_stack2_blockb_u1 (Conv1D)   (None, 128, 32)      8224        bn_stack2_a[0][0]                
__________________________________________________________________________________________________
bn_stack2_blockb_u1 (BatchNorma (None, 128, 32)      128         res_stack2_blockb_u1[0][0]       
__________________________________________________________________________________________________
activation_18 (Activation)      (None, 128, 32)      0           bn_stack2_blockb_u1[0][0]        
__________________________________________________________________________________________________
res_stack2_blockb_u2 (Conv1D)   (None, 128, 32)      1056        activation_18[0][0]              
__________________________________________________________________________________________________
bn_stack2_blockb_u2 (BatchNorma (None, 128, 32)      128         res_stack2_blockb_u2[0][0]       
__________________________________________________________________________________________________
add_9 (Add)                     (None, 128, 32)      0           bn_stack2_blockb_u2[0][0]        
                                                                 bn_stack2_a[0][0]                
__________________________________________________________________________________________________
activation_19 (Activation)      (None, 128, 32)      0           add_9[0][0]                      
__________________________________________________________________________________________________
res_stack2_blockc_u1 (Conv1D)   (None, 128, 32)      8224        activation_19[0][0]              
__________________________________________________________________________________________________
bn_stack2_blockc_u1 (BatchNorma (None, 128, 32)      128         res_stack2_blockc_u1[0][0]       
__________________________________________________________________________________________________
activation_20 (Activation)      (None, 128, 32)      0           bn_stack2_blockc_u1[0][0]        
__________________________________________________________________________________________________
res_stack2_blockc_u2 (Conv1D)   (None, 128, 32)      1056        activation_20[0][0]              
__________________________________________________________________________________________________
bn_stack2_blockc_u2 (BatchNorma (None, 128, 32)      128         res_stack2_blockc_u2[0][0]       
__________________________________________________________________________________________________
add_10 (Add)                    (None, 128, 32)      0           bn_stack2_blockc_u2[0][0]        
                                                                 activation_19[0][0]              
__________________________________________________________________________________________________
activation_21 (Activation)      (None, 128, 32)      0           add_10[0][0]                     
__________________________________________________________________________________________________
res_stack3_a (Conv1D)           (None, 128, 48)      1584        activation_21[0][0]              
__________________________________________________________________________________________________
bn_stack3_a (BatchNormalization (None, 128, 48)      192         res_stack3_a[0][0]               
__________________________________________________________________________________________________
res_stack3_blockb_u1 (Conv1D)   (None, 128, 48)      18480       bn_stack3_a[0][0]                
__________________________________________________________________________________________________
bn_stack3_blockb_u1 (BatchNorma (None, 128, 48)      192         res_stack3_blockb_u1[0][0]       
__________________________________________________________________________________________________
activation_22 (Activation)      (None, 128, 48)      0           bn_stack3_blockb_u1[0][0]        
__________________________________________________________________________________________________
res_stack3_blockb_u2 (Conv1D)   (None, 128, 48)      2352        activation_22[0][0]              
__________________________________________________________________________________________________
bn_stack3_blockb_u2 (BatchNorma (None, 128, 48)      192         res_stack3_blockb_u2[0][0]       
__________________________________________________________________________________________________
add_11 (Add)                    (None, 128, 48)      0           bn_stack3_blockb_u2[0][0]        
                                                                 bn_stack3_a[0][0]                
__________________________________________________________________________________________________
activation_23 (Activation)      (None, 128, 48)      0           add_11[0][0]                     
__________________________________________________________________________________________________
res_stack3_blockc_u1 (Conv1D)   (None, 128, 48)      18480       activation_23[0][0]              
__________________________________________________________________________________________________
bn_stack3_blockc_u1 (BatchNorma (None, 128, 48)      192         res_stack3_blockc_u1[0][0]       
__________________________________________________________________________________________________
activation_24 (Activation)      (None, 128, 48)      0           bn_stack3_blockc_u1[0][0]        
__________________________________________________________________________________________________
res_stack3_blockc_u2 (Conv1D)   (None, 128, 48)      2352        activation_24[0][0]              
__________________________________________________________________________________________________
bn_stack3_blockc_u2 (BatchNorma (None, 128, 48)      192         res_stack3_blockc_u2[0][0]       
__________________________________________________________________________________________________
add_12 (Add)                    (None, 128, 48)      0           bn_stack3_blockc_u2[0][0]        
                                                                 activation_23[0][0]              
__________________________________________________________________________________________________
activation_25 (Activation)      (None, 128, 48)      0           add_12[0][0]                     
__________________________________________________________________________________________________
pooling_size (MaxPooling1D)     (None, 32, 48)       0           activation_25[0][0]              
__________________________________________________________________________________________________
flatten_1 (Flatten)             (None, 1536)         0           pooling_size[0][0]               
__________________________________________________________________________________________________
small_dense4 (Dense)            (None, 11)           16907       flatten_1[0][0]                  
__________________________________________________________________________________________________
activation_26 (Activation)      (None, 11)           0           small_dense4[0][0]               
==================================================================================================
Total params: 85,899
Trainable params: 84,939
Non-trainable params: 960
__________________________________________________________________________________________________
Train on 198000 samples, validate on 22000 samples
Epoch 1/300
 - 201s - loss: 1.9093 - acc: 0.2930 - val_loss: 2.6380 - val_acc: 0.1683
…
 - 31s - loss: 0.5483 - acc: 0.7946 - val_loss: 2.4419 - val_acc: 0.5283
('SM:', [1.083437858841636, 0.624090909090909])
Process finished with exit code 0
-------------------------------------------------------------------------------------------------------the quantized NSM 
__________________________________________________________________________________________________
Layer (type)                    Output Shape         Param #     Connected to                     
==================================================================================================
Input (InputLayer)              (None, 128, 2)       0                                            
__________________________________________________________________________________________________
res_stack1_a (Conv1D)           (None, 128, 16)      48          Input[0][0]                      
__________________________________________________________________________________________________
bn_stack1_a (BatchNormalization (None, 128, 16)      64          res_stack1_a[0][0]               
__________________________________________________________________________________________________
res_stack1_blockb_u1 (Conv1D)   (None, 128, 16)      2064        bn_stack1_a[0][0]                
__________________________________________________________________________________________________
bn_stack1_blockb_u1 (BatchNorma (None, 128, 16)      64          res_stack1_blockb_u1[0][0]       
__________________________________________________________________________________________________
activation_14 (Activation)      (None, 128, 16)      0           bn_stack1_blockb_u1[0][0]        
__________________________________________________________________________________________________
res_stack1_blockb_u2 (Conv1D)   (None, 128, 16)      272         activation_14[0][0]              
__________________________________________________________________________________________________
bn_stack1_blockb_u2 (BatchNorma (None, 128, 16)      64          res_stack1_blockb_u2[0][0]       
__________________________________________________________________________________________________
add_7 (Add)                     (None, 128, 16)      0           bn_stack1_blockb_u2[0][0]        
                                                                 bn_stack1_a[0][0]                
__________________________________________________________________________________________________
activation_15 (Activation)      (None, 128, 16)      0           add_7[0][0]                      
__________________________________________________________________________________________________
res_stack1_blockc_u1 (Conv1D)   (None, 128, 16)      2064        activation_15[0][0]              
__________________________________________________________________________________________________
bn_stack1_blockc_u1 (BatchNorma (None, 128, 16)      64          res_stack1_blockc_u1[0][0]       
__________________________________________________________________________________________________
activation_16 (Activation)      (None, 128, 16)      0           bn_stack1_blockc_u1[0][0]        
__________________________________________________________________________________________________
res_stack1_blockc_u2 (Conv1D)   (None, 128, 16)      272         activation_16[0][0]              
__________________________________________________________________________________________________
bn_stack1_blockc_u2 (BatchNorma (None, 128, 16)      64          res_stack1_blockc_u2[0][0]       
__________________________________________________________________________________________________
add_8 (Add)                     (None, 128, 16)      0           bn_stack1_blockc_u2[0][0]        
                                                                 activation_15[0][0]              
__________________________________________________________________________________________________
activation_17 (Activation)      (None, 128, 16)      0           add_8[0][0]                      
__________________________________________________________________________________________________
res_stack2_a (Conv1D)           (None, 128, 32)      544         activation_17[0][0]              
__________________________________________________________________________________________________
bn_stack2_a (BatchNormalization (None, 128, 32)      128         res_stack2_a[0][0]               
__________________________________________________________________________________________________
res_stack2_blockb_u1 (Conv1D)   (None, 128, 32)      8224        bn_stack2_a[0][0]                
__________________________________________________________________________________________________
bn_stack2_blockb_u1 (BatchNorma (None, 128, 32)      128         res_stack2_blockb_u1[0][0]       
__________________________________________________________________________________________________
activation_18 (Activation)      (None, 128, 32)      0           bn_stack2_blockb_u1[0][0]        
__________________________________________________________________________________________________
res_stack2_blockb_u2 (Conv1D)   (None, 128, 32)      1056        activation_18[0][0]              
__________________________________________________________________________________________________
bn_stack2_blockb_u2 (BatchNorma (None, 128, 32)      128         res_stack2_blockb_u2[0][0]       
__________________________________________________________________________________________________
add_9 (Add)                     (None, 128, 32)      0           bn_stack2_blockb_u2[0][0]        
                                                                 bn_stack2_a[0][0]                
__________________________________________________________________________________________________
activation_19 (Activation)      (None, 128, 32)      0           add_9[0][0]                      
__________________________________________________________________________________________________
res_stack2_blockc_u1 (Conv1D)   (None, 128, 32)      8224        activation_19[0][0]              
__________________________________________________________________________________________________
bn_stack2_blockc_u1 (BatchNorma (None, 128, 32)      128         res_stack2_blockc_u1[0][0]       
__________________________________________________________________________________________________
activation_20 (Activation)      (None, 128, 32)      0           bn_stack2_blockc_u1[0][0]        
__________________________________________________________________________________________________
res_stack2_blockc_u2 (Conv1D)   (None, 128, 32)      1056        activation_20[0][0]              
__________________________________________________________________________________________________
bn_stack2_blockc_u2 (BatchNorma (None, 128, 32)      128         res_stack2_blockc_u2[0][0]       
__________________________________________________________________________________________________
add_10 (Add)                    (None, 128, 32)      0           bn_stack2_blockc_u2[0][0]        
                                                                 activation_19[0][0]              
__________________________________________________________________________________________________
activation_21 (Activation)      (None, 128, 32)      0           add_10[0][0]                     
__________________________________________________________________________________________________
res_stack3_a (Conv1D)           (None, 128, 48)      1584        activation_21[0][0]              
__________________________________________________________________________________________________
bn_stack3_a (BatchNormalization (None, 128, 48)      192         res_stack3_a[0][0]               
__________________________________________________________________________________________________
res_stack3_blockb_u1 (Conv1D)   (None, 128, 48)      18480       bn_stack3_a[0][0]                
__________________________________________________________________________________________________
bn_stack3_blockb_u1 (BatchNorma (None, 128, 48)      192         res_stack3_blockb_u1[0][0]       
__________________________________________________________________________________________________
activation_22 (Activation)      (None, 128, 48)      0           bn_stack3_blockb_u1[0][0]        
__________________________________________________________________________________________________
res_stack3_blockb_u2 (Conv1D)   (None, 128, 48)      2352        activation_22[0][0]              
__________________________________________________________________________________________________
bn_stack3_blockb_u2 (BatchNorma (None, 128, 48)      192         res_stack3_blockb_u2[0][0]       
__________________________________________________________________________________________________
add_11 (Add)                    (None, 128, 48)      0           bn_stack3_blockb_u2[0][0]        
                                                                 bn_stack3_a[0][0]                
__________________________________________________________________________________________________
activation_23 (Activation)      (None, 128, 48)      0           add_11[0][0]                     
__________________________________________________________________________________________________
res_stack3_blockc_u1 (Conv1D)   (None, 128, 48)      18480       activation_23[0][0]              
__________________________________________________________________________________________________
bn_stack3_blockc_u1 (BatchNorma (None, 128, 48)      192         res_stack3_blockc_u1[0][0]       
__________________________________________________________________________________________________
activation_24 (Activation)      (None, 128, 48)      0           bn_stack3_blockc_u1[0][0]        
__________________________________________________________________________________________________
res_stack3_blockc_u2 (Conv1D)   (None, 128, 48)      2352        activation_24[0][0]              
__________________________________________________________________________________________________
bn_stack3_blockc_u2 (BatchNorma (None, 128, 48)      192         res_stack3_blockc_u2[0][0]       
__________________________________________________________________________________________________
add_12 (Add)                    (None, 128, 48)      0           bn_stack3_blockc_u2[0][0]        
                                                                 activation_23[0][0]              
__________________________________________________________________________________________________
activation_25 (Activation)      (None, 128, 48)      0           add_12[0][0]                     
__________________________________________________________________________________________________
pooling_size (MaxPooling1D)     (None, 32, 48)       0           activation_25[0][0]              
__________________________________________________________________________________________________
flatten_1 (Flatten)             (None, 1536)         0           pooling_size[0][0]               
__________________________________________________________________________________________________
small_dense4 (Dense)            (None, 11)           16907       flatten_1[0][0]                  
__________________________________________________________________________________________________
activation_26 (Activation)      (None, 11)           0           small_dense4[0][0]               
==================================================================================================
Total params: 85,899
Trainable params: 84,939
Non-trainable params: 960
__________________________________________________________________________________________________
('The quantized SM:', [1.083437858841636, 0.624090909090909])
Process finished with exit code 0
